…
[38;5;15m    [39m[38;5;204mENABLED[39m[38;5;15m:[39m[38;5;15m [39m[38;5;141mfalse[39m
[38;5;15m    [39m[38;5;204mNUM_ITER[39m[38;5;15m:[39m[38;5;15m [39m[38;5;141m200[39m
[38;5;204mVERSION[39m[38;5;15m:[39m[38;5;15m [39m[38;5;141m2[39m
[38;5;204mVIS_PERIOD[39m[38;5;15m:[39m[38;5;15m [39m[38;5;141m0[39m

[03/22 12:41:53] detectron2 INFO: Full config saved to ./out_put/DiveSeg_UIIS10K_L/config.yaml
[03/22 12:41:53] d2.utils.env INFO: Using a generated random seed 55940572
[03/22 12:42:06] d2.engine.defaults INFO: Model:
MaskFormer(
  (backbone): DiveSeg_Backbone(
    (mse): MultiScaleEncoder(
      (stem): Sequential(
        (0): Conv2d(3, 64, kernel_size=(3, 3), stride=(2, 2), padding=(1, 1), bias=False)
        (1): SyncBatchNorm(64, eps=1e-05, momentum=0.1, affine=True, track_running_stats=True)
        (2): ReLU(inplace=True)
        (3): Conv2d(64, 64, kernel_size=(3, 3), stride=(1, 1), padding=(1, 1), bias=False)
        (4): SyncBatchNorm(64, eps=1e-05, momentum=0.1, affine=True, track_running_stats=True)
        (5): ReLU(inplace=True)
        (6): Conv2d(64, 64, kernel_size=(3, 3), stride=(1, 1), padding=(1, 1), bias=False)
        (7): SyncBatchNorm(64, eps=1e-05, momentum=0.1, affine=True, track_running_stats=True)
        (8): ReLU(inplace=True)
        (9): MaxPool2d(kernel_size=3, stride=2, padding=1, dilation=1, ceil_mode=False)
      )
      (conv2): Sequential(
        (0): Conv2d(64, 128, kernel_size=(3, 3), stride=(2, 2), padding=(1, 1), bias=False)
        (1): SyncBatchNorm(128, eps=1e-05, momentum=0.1, affine=True, track_running_stats=True)
        (2): ReLU(inplace=True)
      )
      (conv3): Sequential(
        (0): Conv2d(128, 256, kernel_size=(3, 3), stride=(2, 2), padding=(1, 1), bias=False)
        (1): SyncBatchNorm(256, eps=1e-05, momentum=0.1, affine=True, track_running_stats=True)
        (2): ReLU(inplace=True)
      )
      (conv4): Sequential(
        (0): Conv2d(256, 256, kernel_size=(3, 3), stride=(2, 2), padding=(1, 1), bias=False)
        (1): SyncBatchNorm(256, eps=1e-05, momentum=0.1, affine=True, track_running_stats=True)
        (2): ReLU(inplace=True)
      )
      (fc2): Conv2d(128, 1024, kernel_size=(1, 1), stride=(1, 1))
      (fc3): Conv2d(256, 1024, kernel_size=(1, 1), stride=(1, 1))
      (fc4): Conv2d(256, 1024, kernel_size=(1, 1), stride=(1, 1))
    )
    (interactions): Sequential(
      (0): InteractionBlockWithCls(
        (ObjectPriorPrompter): ObjectPriorPrompter(
          (query_norm): LayerNorm((1024,), eps=1e-06, elementwise_affine=True)
          (feat_norm): LayerNorm((1024,), eps=1e-06, elementwise_affine=True)
          (attn): MSDeformAttn(
            (sampling_offsets): Linear(in_features=1024, out_features=384, bias=True)
            (attention_weights): Linear(in_features=1024, out_features=192, bias=True)
            (value_proj): Linear(in_features=1024, out_features=1024, bias=True)
            (output_proj): Linear(in_features=1024, out_features=1024, bias=True)
          )
        )
        (StyleInjection): StyleInjection(
          (proj_a): Linear(in_features=1024, out_features=1024, bias=True)
          (atten): MultiheadAttention(
            (out_proj): NonDynamicallyQuantizableLinear(in_features=1024, out_features=1024, bias=True)
          )
        )
        (Adapter): Adapter(
          (proj_1): Linear(in_features=1024, out_features=1024, bias=True)
          (active): GELU(approximate='none')
          (proj_2): Linear(in_features=1024, out_features=1024, bias=True)
        )
        (op_heads): ModuleList(
          (0-2): 3 x Conv2d(1024, 1, kernel_size=(1, 1), stride=(1, 1))
        )
        (conv2): Conv2d(1024, 1024, kernel_size=(1, 1), stride=(1, 1))
        (norm2): BatchNorm2d(1024, eps=1e-05, momentum=0.1, affine=True, track_running_stats=True)
        (conv3): Conv2d(1024, 1024, kernel_size=(1, 1), stride=(1, 1))
        (norm3): BatchNorm2d(1024, eps=1e-05, momentum=0.1, affine=True, track_running_stats=True)
        (conv4): Conv2d(1024, 1024, kernel_size=(1, 1), stride=(1, 1))
        (norm4): BatchNorm2d(1024, eps=1e-05, momentum=0.1, affine=True, track_running_stats=True)
      )
      (1): InteractionBlockWithCls(
        (ObjectPriorPrompter): ObjectPriorPrompter(
          (query_norm): LayerNorm((1024,), eps=1e-06, elementwise_affine=True)
          (feat_norm): LayerNorm((1024,), eps=1e-06, elementwise_affine=True)
          (attn): MSDeformAttn(
            (sampling_offsets): Linear(in_features=1024, out_features=384, bias=True)
            (attention_weights): Linear(in_features=1024, out_features=192, bias=True)
            (value_proj): Linear(in_features=1024, out_features=1024, bias=True)
            (output_proj): Linear(in_features=1024, out_features=1024, bias=True)
          )
        )
        (StyleInjection): StyleInjection(
          (proj_a): Linear(in_features=1024, out_features=1024, bias=True)
          (atten): MultiheadAttention(
            (out_proj): NonDynamicallyQuantizableLinear(in_features=1024, out_features=1024, bias=True)
          )
        )
        (Adapter): Adapter(
          (proj_1): Linear(in_features=1024, out_features=1024, bias=True)
          (active): GELU(approximate='none')
          (proj_2): Linear(in_features=1024, out_features=1024, bias=True)
        )
        (op_heads): ModuleList(
          (0-2): 3 x Conv2d(1024, 1, kernel_size=(1, 1), stride=(1, 1))
        )
        (conv2): Conv2d(1024, 1024, kernel_size=(1, 1), stride=(1, 1))
        (norm2): BatchNorm2d(1024, eps=1e-05, momentum=0.1, affine=True, track_running_stats=True)
        (conv3): Conv2d(1024, 1024, kernel_size=(1, 1), stride=(1, 1))
        (norm3): BatchNorm2d(1024, eps=1e-05, momentum=0.1, affine=True, track_running_stats=True)
        (conv4): Conv2d(1024, 1024, kernel_size=(1, 1), stride=(1, 1))
        (norm4): BatchNorm2d(1024, eps=1e-05, momentum=0.1, affine=True, track_running_stats=True)
      )
      (2): InteractionBlockWithCls(
        (ObjectPriorPrompter): ObjectPriorPrompter(
          (query_norm): LayerNorm((1024,), eps=1e-06, elementwise_affine=True)
          (feat_norm): LayerNorm((1024,), eps=1e-06, elementwise_affine=True)
          (attn): MSDeformAttn(
            (sampling_offsets): Linear(in_features=1024, out_features=384, bias=True)
            (attention_weights): Linear(in_features=1024, out_features=192, bias=True)
            (value_proj): Linear(in_features=1024, out_features=1024, bias=True)
            (output_proj): Linear(in_features=1024, out_features=1024, bias=True)
          )
        )
        (StyleInjection): StyleInjection(
          (proj_a): Linear(in_features=1024, out_features=1024, bias=True)
          (atten): MultiheadAttention(
            (out_proj): NonDynamicallyQuantizableLinear(in_features=1024, out_features=1024, bias=True)
          )
        )
        (Adapter): Adapter(
          (proj_1): Linear(in_features=1024, out_features=1024, bias=True)
          (active): GELU(approximate='none')
          (proj_2): Linear(in_features=1024, out_features=1024, bias=True)
        )
        (op_heads): ModuleList(
          (0-2): 3 x Conv2d(1024, 1, kernel_size=(1, 1), stride=(1, 1))
        )
        (conv2): Conv2d(1024, 1024, kernel_size=(1, 1), stride=(1, 1))
        (norm2): BatchNorm2d(1024, eps=1e-05, momentum=0.1, affine=True, track_running_stats=True)
        (conv3): Conv2d(1024, 1024, kernel_size=(1, 1), stride=(1, 1))
        (norm3): BatchNorm2d(1024, eps=1e-05, momentum=0.1, affine=True, track_running_stats=True)
        (conv4): Conv2d(1024, 1024, kernel_size=(1, 1), stride=(1, 1))
        (norm4): BatchNorm2d(1024, eps=1e-05, momentum=0.1, affine=True, track_running_stats=True)
      )
      (3): InteractionBlockWithCls(
        (ObjectPriorPrompter): ObjectPriorPrompter(
          (query_norm): LayerNorm((1024,), eps=1e-06, elementwise_affine=True)
          (feat_norm): LayerNorm((1024,), eps=1e-06, elementwise_affine=True)
          (attn): MSDeformAttn(
            (sampling_offsets): Linear(in_features=1024, out_features=384, bias=True)
            (attention_weights): Linear(in_features=1024, out_features=192, bias=True)
            (value_proj): Linear(in_features=1024, out_features=1024, bias=True)
            (output_proj): Linear(in_features=1024, out_features=1024, bias=True)
          )
        )
        (StyleInjection): StyleInjection(
          (proj_a): Linear(in_features=1024, out_features=1024, bias=True)
          (atten): MultiheadAttention(
            (out_proj): NonDynamicallyQuantizableLinear(in_features=1024, out_features=1024, bias=True)
          )
        )
        (Adapter): Adapter(
          (proj_1): Linear(in_features=1024, out_features=1024, bias=True)
          (active): GELU(approximate='none')
          (proj_2): Linear(in_features=1024, out_features=1024, bias=True)
        )
        (op_heads): ModuleList(
          (0-2): 3 x Conv2d(1024, 1, kernel_size=(1, 1), stride=(1, 1))
        )
        (conv2): Conv2d(1024, 1024, kernel_size=(1, 1), stride=(1, 1))
        (norm2): BatchNorm2d(1024, eps=1e-05, momentum=0.1, affine=True, track_running_stats=True)
        (conv3): Conv2d(1024, 1024, kernel_size=(1, 1), stride=(1, 1))
        (norm3): BatchNorm2d(1024, eps=1e-05, momentum=0.1, affine=True, track_running_stats=True)
        (conv4): Conv2d(1024, 1024, kernel_size=(1, 1), stride=(1, 1))
        (norm4): BatchNorm2d(1024, eps=1e-05, momentum=0.1, affine=True, track_running_stats=True)
      )
    )
    (vit_module): DinoVisionTransformer(
      (patch_embed): PatchEmbed(
        (proj): Conv2d(3, 1024, kernel_size=(16, 16), stride=(16, 16))
        (norm): Identity()
      )
      (blocks): ModuleList(
        (0-23): 24 x NestedTensorBlock(
          (norm1): LayerNorm((1024,), eps=1e-06, elementwise_affine=True)
          (attn): MemEffAttention(
            (qkv): Linear(in_features=1024, out_features=3072, bias=True)
            (attn_drop): Dropout(p=0.0, inplace=False)
            (proj): Linear(in_features=1024, out_features=1024, bias=True)
            (proj_drop): Dropout(p=0.0, inplace=False)
          )
          (ls1): LayerScale()
          (drop_path1): Identity()
          (norm2): LayerNorm((1024,), eps=1e-06, elementwise_affine=True)
          (mlp): Mlp(
            (fc1): Linear(in_features=1024, out_features=4096, bias=True)
            (act): GELU(approximate='none')
            (fc2): Linear(in_features=4096, out_features=1024, bias=True)
            (drop): Dropout(p=0.0, inplace=False)
          )
          (ls2): LayerScale()
          (drop_path2): Identity()
        )
      )
      (norm): LayerNorm((1024,), eps=1e-06, elementwise_affine=True)
      (head): Identity()
    )
    (style_extractor): StyleExtractor(
      (conv1): Conv2d(3, 1024, kernel_size=(3, 3), stride=(2, 2), padding=(1, 1))
      (conv2): Conv2d(1024, 1024, kernel_size=(3, 3), stride=(1, 1), padding=(1, 1))
      (conv3): Conv2d(1024, 1024, kernel_size=(1, 1), stride=(1, 1))
      (relu): ReLU(inplace=True)
      (avgpool): AdaptiveAvgPool2d(output_size=1)
    )
  )
  (sem_seg_head): MaskFormerHead(
    (pixel_decoder): MSDeformAttnPixelDecoder(
      (input_proj): ModuleList(
        (0-2): 3 x Sequential(
          (0): Conv2d(1024, 256, kernel_size=(1, 1), stride=(1, 1))
          (1): GroupNorm(32, 256, eps=1e-05, affine=True)
        )
      )
      (transformer): MSDeformAttnTransformerEncoderOnly(
        (encoder): MSDeformAttnTransformerEncoder(
          (layers): ModuleList(
            (0-5): 6 x MSDeformAttnTransformerEncoderLayer(
              (self_attn): MSDeformAttn(
                (sampling_offsets): Linear(in_features=256, out_features=192, bias=True)
                (attention_weights): Linear(in_features=256, out_features=96, bias=True)
                (value_proj): Linear(in_features=256, out_features=256, bias=True)
                (output_proj): Linear(in_features=256, out_features=256, bias=True)
              )
              (dropout1): Dropout(p=0.0, inplace=False)
              (norm1): LayerNorm((256,), eps=1e-05, elementwise_affine=True)
              (linear1): Linear(in_features=256, out_features=1024, bias=True)
              (dropout2): Dropout(p=0.0, inplace=False)
              (linear2): Linear(in_features=1024, out_features=256, bias=True)
              (dropout3): Dropout(p=0.0, inplace=False)
              (norm2): LayerNorm((256,), eps=1e-05, elementwise_affine=True)
            )
          )
        )
      )
      (pe_layer): Positional encoding PositionEmbeddingSine
          num_pos_feats: 128
          temperature: 10000
          normalize: True
          scale: 6.283185307179586
      (mask_features): Conv2d(256, 256, kernel_size=(1, 1), stride=(1, 1))
      (adapter_1): Conv2d(
        1024, 256, kernel_size=(1, 1), stride=(1, 1), bias=False
        (norm): GroupNorm(32, 256, eps=1e-05, affine=True)
      )
      (layer_1): Conv2d(
        256, 256, kernel_size=(3, 3), stride=(1, 1), padding=(1, 1), bias=False
        (norm): GroupNorm(32, 256, eps=1e-05, affine=True)
      )
    )
    (predictor): MultiScaleMaskedTransformerDecoder(
      (pe_layer): Positional encoding PositionEmbeddingSine
          num_pos_feats: 128
          temperature: 10000
          normalize: True
          scale: 6.283185307179586
      (transformer_self_attention_layers): ModuleList(
        (0-8): 9 x SelfAttentionLayer(
          (self_attn): MultiheadAttention(
            (out_proj): NonDynamicallyQuantizableLinear(in_features=256, out_features=256, bias=True)
          )
          (norm): LayerNorm((256,), eps=1e-05, elementwise_affine=True)
          (dropout): Dropout(p=0.0, inplace=False)
        )
      )
      (transformer_cross_attention_layers): ModuleList(
        (0-8): 9 x CrossAttentionLayer(
          (multihead_attn): MultiheadAttention(
            (out_proj): NonDynamicallyQuantizableLinear(in_features=256, out_features=256, bias=True)
          )
          (norm): LayerNorm((256,), eps=1e-05, elementwise_affine=True)
          (dropout): Dropout(p=0.0, inplace=False)
        )
      )
      (transformer_ffn_layers): ModuleList(
        (0-8): 9 x FFNLayer(
          (linear1): Linear(in_features=256, out_features=2048, bias=True)
          (dropout): Dropout(p=0.0, inplace=False)
          (linear2): Linear(in_features=2048, out_features=256, bias=True)
          (norm): LayerNorm((256,), eps=1e-05, elementwise_affine=True)
        )
      )
      (decoder_norm): LayerNorm((256,), eps=1e-05, elementwise_affine=True)
      (query_feat): Embedding(100, 256)
      (query_embed): Embedding(100, 256)
      (level_embed): Embedding(3, 256)
      (input_proj): ModuleList(
        (0-2): 3 x Sequential()
      )
      (class_embed): Linear(in_features=256, out_features=11, bias=True)
      (mask_embed): MLP(
        (layers): ModuleList(
          (0-2): 3 x Linear(in_features=256, out_features=256, bias=True)
        )
      )
    )
  )
  (criterion): Criterion SetCriterion
      matcher: Matcher HungarianMatcher
          cost_class: 2.0
          cost_mask: 5.0
          cost_dice: 5.0
      losses: ['labels', 'masks', 'opp']
   
…
